ml/ml/ml_models/trained_model.pt (torch, 3272 bytes, 5 tensors)

fc1.weight f4 [16, 4]
0	0x3f02feb4	0.51169896
1	0x3f02c032	0.51074517
2	0xbd35b8db	-0.044365745
3	0x3e3dca72	0.18534258
4	0x3ed4a582	0.41532522
5	0xbeabfb8e	-0.33590358
6	0x3d9a6660	0.07539058
7	0xbe732500	-0.23744583
8	0xbe390c68	-0.18071139
9	0xbd0bc9d0	-0.03412801
10	0xbedc3f80	-0.43017197
11	0xbe8f290a	-0.27960998
12	0xbe8d3f00	-0.27587128
13	0xbc4544c0	-0.012040317
14	0x3e2d3948	0.16916382
15	0xbd891130	-0.066927314
16	0x3e664852	0.22488526
17	0x3e9a4310	0.3012929
18	0x3e4738ae	0.19455215
19	0xbefe9cbe	-0.4972896
20	0x3ec4e2e4	0.38454354
21	0x3e61286c	0.21988076
22	0xbe8f682d	-0.28009167
23	0x3aced466	0.0015779852
24	0x3e910c1a	0.28329545
25	0xbefeb898	-0.4975021
26	0x3e961cfa	0.29318982
27	0x3db17028	0.0866397
28	0x3ecbf55e	0.39835638
29	0x3e2db339	0.169629
30	0xbe618d8e	-0.22026655
31	0xbed07b28	-0.4071896
32	0xbe61bcc4	-0.22044665
33	0xbea0d910	-0.31415606
34	0xbec7a042	-0.38989455
35	0x3e88f094	0.26746047
36	0x3efe73d2	0.4969774
37	0x3d9382cb	0.07202681
38	0xbd07274a	-0.032996453
39	0xbed84214	-0.42237914
40	0xbed4892e	-0.4151091
41	0xbed59ffc	-0.4172362
42	0xbd9bcfd8	-0.076080024
43	0xbefcec70	-0.49399137
44	0xbdaa3c20	-0.08312249
45	0xbe3dff94	-0.18554527
46	0xbe09617c	-0.13416094
47	0xbe45cd2c	-0.19316548
48	0x3ea1ae60	0.3157835
49	0x3ed6436e	0.4184832
50	0xbe14f8f7	-0.14548098
51	0xbddfde09	-0.10931022
52	0xbe8a030c	-0.2695545
53	0xbef1c9e0	-0.4722433
54	0xbef2c66c	-0.4741701
55	0x3bb69500	0.0055719614
56	0xbe03cdba	-0.12871447
57	0x3edd0505	0.43167892
58	0x3e41cecd	0.18926544
59	0xbeeeb4d8	-0.46622348
60	0xbee9839c	-0.45608222
61	0xbefb7bd8	-0.49117923
62	0xbee8ec26	-0.45492667
63	0x3df18118	0.11792201

fc1.bias f4 [16]
0	0x3ed9f627	0.42570612
1	0x3e6e3c40	0.23265171
2	0x3eade472	0.33963352
3	0xbe5148c0	-0.20437908
4	0x3dae0cd3	0.0849854
5	0x3ede3f9c	0.43407905
6	0xbcf006e0	-0.029300153
7	0x3e88faf1	0.26753953
8	0xbdb5e998	-0.08882445
9	0x3e1578b1	0.14596821
10	0xbef793aa	-0.48354846
11	0xbeb5eb54	-0.35531104
12	0x3ed3b756	0.41350812
13	0x3ef475bc	0.47746074
14	0x3ed7b39a	0.42129213
15	0x3e3f6d74	0.18694097

fc2.weight f4 [8, 16]
0	0xbe638194	-0.22217399
1	0x3e239b82	0.1597729
2	0xbd4e7550	-0.050404847
3	0xbe6f9c14	-0.23399383
4	0x3c9e7fa0	0.019347966
5	0xbd690a68	-0.05689469
6	0x3ddd4424	0.108040124
7	0x3e77f06c	0.24212807
8	0xbe554d08	-0.20830166
9	0x3df2049c	0.118172854
10	0x3db9e788	0.09077364
11	0xbe508c46	-0.2036601
12	0x3d12e100	0.035859108
13	0x3d91cd88	0.0711928
14	0x3d2ce1e0	0.0422076
15	0xbe192d5a	-0.14958706
16	0xbd83127c	-0.0640001
17	0x3d777390	0.060412943
18	0x3ccfd800	0.025371552
19	0x3dee65f8	0.11640543
20	0x3ca49570	0.020090789
21	0xbe798b52	-0.24369553
22	0x3d103fe8	0.035217196
23	0x3db2df84	0.087340385
24	0x3dbe0380	0.09278011
25	0xbda7c9ec	-0.081928104
26	0x3e0746f8	0.13210666
27	0xbe7d485e	-0.24734637
28	0xbd797798	-0.06090507
29	0x3d961cd4	0.07329717
30	0x3e016b56	0.12638602
31	0xbc8c9de0	-0.017165124
32	0x3e3d8f24	0.18511635
33	0xbb560d80	-0.0032661855
34	0xbdab2d3c	-0.08358237
35	0xbe1cf3f2	-0.15327433
36	0xbd9b83c7	-0.07593494
37	0xbd909264	-0.07059172
38	0x3dfc0214	0.12305084
39	0xbe2afe2c	-0.16698521
40	0x3cb36b80	0.021901846
41	0xbe9fd867	-0.3121979
42	0x3e6ba142	0.23010734
43	0x3e0bc06e	0.13647625
44	0x3d52218a	0.051301517
45	0x3dc3e1d8	0.09564561
46	0xbd7c8719	-0.061652277
47	0xbe312c96	-0.17302164
48	0xbdfd0537	-0.1235451
49	0x3e533150	0.2062428
50	0xba95dd00	-0.0011433661
51	0xbdf917ac	-0.12162718
52	0x3e287683	0.16451459
53	0xbe0a6dfb	-0.13518517
54	0x3d076830	0.033058345
55	0xbada4fde	-0.0016655882
56	0xbe4be6c2	-0.19912246
57	0x3e2e3023	0.1701055
58	0x3bd8b380	0.006613195
59	0xbe5b9da6	-0.21446857
60	0x3e254adf	0.16141842
61	0x3e2f84ae	0.17140457
62	0x3e84fde1	0.25974944
63	0xbe6f3d78	-0.23363292
64	0x3e8470de	0.2586736
65	0x3e384694	0.17995673
66	0xbe181b60	-0.14854193
67	0x3dfc2f00	0.12313652
68	0x3e474371	0.1945932
69	0xbdbf45a5	-0.093394555
70	0x3dba0670	0.09083259
71	0x3e2c2ef6	0.16814789
72	0xbe183408	-0.14863598
73	0xbe40fdbb	-0.1884679
74	0x3e0a1bf4	0.13487226
75	0x3d9c7878	0.07640165
76	0xbe123c3c	-0.1428079
77	0xbe7172a0	-0.23578882
78	0xbe5a65ad	-0.21327849
79	0x3e6d14f4	0.23152524
80	0x3e46de00	0.19420624
81	0xbe72ae54	-0.23699313
82	0x3e6fca98	0.23417127
83	0xbbb849c0	-0.005624026
84	0xbe05d34d	-0.13068886
85	0x3e89ae84	0.26890957
86	0xbe1eada0	-0.1549592
87	0xbdbcc03e	-0.09216355
88	0x3dde6fe4	0.10861185
89	0x3da83d18	0.08214778
90	0xbce44110	-0.027863055
91	0x3e7735b2	0.24141577
92	0xbd10e93d	-0.035378683
93	0xbd695e40	-0.05697465
94	0xbe7a4d8c	-0.24443644
95	0xbe793b38	-0.24338996
96	0x3e101cb2	0.14073446
97	0xbe537410	-0.20649743
98	0xbe020ee6	-0.12700996
99	0x3dfa0410	0.12207806
100	0x3dab095b	0.08351394
101	0xbc9d7801	-0.019222261
102	0x3e4d9bac	0.20078915
103	0xbe43a028	-0.19104064
104	0xbe357f6c	-0.17724389
105	0xbeaaafbb	-0.33337197
106	0x3c6c0680	0.014405847
107	0xbdab03e0	-0.083503485
108	0x3e03891b	0.1284527
109	0x3ddfd8e8	0.109300435
110	0xbe651f7c	-0.22375292
111	0x3e0473d0	0.12934804
112	0x3daf191c	0.08549711
113	0x3e328b70	0.17436004
114	0x3e7c6be0	0.24650526
115	0xbe311730	-0.17294002
116	0xbe2267bf	-0.15859888
117	0xbd75d3ee	-0.060016565
118	0xbe40c062	-0.18823388
119	0x3da64def	0.081203334
120	0x3d053f98	0.03253135
121	0xbdab9503	-0.08378031
122	0xbe0dae5a	-0.13836041
123	0xbdebe63c	-0.11518523
124	0x3de47fed	0.111572124
125	0xbc2bc000	-0.010482788
126	0x3e932954	0.28742468
127	0xbe5b0e96	-0.21392283

fc2.bias f4 [8]
0	0xbdcc7634	-0.09983483
1	0x3e0fe5f6	0.14052567
2	0xbd0d488a	-0.034493007
3	0x3d64c91b	0.05585585
4	0xbe16c182	-0.14722255
5	0x3cdc9165	0.026924798
6	0x3dd42a8a	0.10359676
7	0xbe67c9f3	-0.22635631

fc3.weight f4 [1, 8]
0	0x3de7a12c	0.11310038
1	0xbe8e29fe	-0.27766412
2	0x3e58889d	0.21145864
3	0xbeb46992	-0.35236794
4	0x3e1b6ec2	0.1517897
5	0x3ee5ff2a	0.44921237
6	0x3e03d71d	0.12875028
7	0xbe12e84a	-0.14346424
